checkpoint.pth (torch_old, 28463 bytes, 6 tensors)

fc1.weight f4 [64, 37]
-0.115912616 0.19131064 -0.19221517 -0.21094312 -0.3267152 0.08902747 0.011053232 -0.06498746
-0.15532446 -0.19667242 -0.025192235 -0.09222632 -0.11338362 -0.12572145 -0.12311876 -0.103337
0.16752253 -0.02359214 0.0017505881 -0.3367357 0.15808457 0.054574702 0.079325475 0.037255395
-0.04754266 -0.02325395 0.1493755 -0.17696756 -0.11715834 -0.43688458 -0.06684449 0.08255533
0.10711705 -0.103420116 -0.23311174 0.00052306586 -0.008845996 0.19968893 0.117220595 0.116353475
0.0017882821 -0.17178133 0.18894386 -0.31593242 -0.05252358 -0.10164023 -0.5072825 0.07642562
-0.047471955 0.12151307 0.21771277 0.4047124 0.11917344 -0.025927834 0.13112207 0.15802458
0.02073531 -0.082710534 -0.0018268912 -0.05086338 0.010301176 -0.025802145 -0.11321114 0.26520807
0.117070116 0.0076759565 0.012347548 0.017782046 0.20577905 0.102144934 0.20999168 0.2856676
0.12935518 0.01081037 0.10226884 0.04375611 0.11134557 0.059673212 0.17251086 -0.64857155
0.24837786 0.1899665 0.0012384634 -0.19166791 0.06662247 -0.053536445 0.08960161 -0.0767506
0.047980707 -0.077702194 -0.0047242194 0.11800217 0.20646232 0.25368413 -0.16139996 -0.0876866
0.08382689 0.06460111 0.18457718 -0.16219397 0.1766374 0.16511193 -0.042957533 -0.014424925
-0.18186776 0.13282946 -0.22430928 0.027383221 0.089030586 -0.014985741 0.0010298059 0.15556763
-0.3781329 0.138139 0.21450384 -0.6447094 -0.093922004 0.025139742 0.23479559 -0.25082535
-0.25976524 0.016329203 0.043877237 0.12106567 -0.22042724 -0.07136377 -0.14784189 -0.25303558
0.12631984 -0.09895529 -0.39741567 0.15749942 -0.020528687 -0.105683364 0.115687616 -0.16279805
-0.08410392 0.0146868965 0.2355575 0.027690666 -0.20581822 0.10688211 0.22713307 0.08663538
-0.14608933 -0.5079583 0.13616295 -0.009994941 -0.1325638 -0.2300382 -0.070552275 -0.12678985
0.041291434 -0.044431917 0.39087996 -0.3131166 -0.25051138 -0.09908884 0.19943348 -0.20127635
-0.11822933 -0.499664 -0.43557602 -0.016257927 -0.13384917 -0.027741266 -0.19188254 0.11865304
0.029155161 -0.04068577 0.005731237 -0.31902018 -0.21162641 0.1604459 -0.19481167 0.048216473
-0.20822562 -0.4200384 0.11894649 -0.06957513 -0.004125814 -0.01796815 0.009086926 -0.028658217
0.003406071 0.015778806 -0.05559752 -0.017537845 -0.036828965 0.2733066 0.19172081 0.15387914
-0.07147077 -0.21861088 -0.31983805 -0.23278616 0.069792345 -0.10004493 0.04034674 0.17474782
-0.13185823 0.1497384 0.052458595 -0.25521827 -0.053108264 0.14009316 -0.097794436 0.11523639
0.019560257 0.11872644 -0.17073387 0.01507159 0.11867284 0.004331439 0.08660345 0.10920529
0.024012296 -0.117741294 -0.17490236 -0.8219012 -0.028312605 0.011740957 -0.09606396 0.03508464
-0.056628373 0.12095174 0.049454276 -0.033473544 -0.071313016 0.07904684 -0.16748984 0.2774574
0.0705954 0.029139169 0.112027965 -0.0029263014 0.17479585 -0.19914576 -0.07141586 0.11525016
0.10835141 0.07189588 -0.11934292 -0.055052523 0.0781326 0.030760378 0.09972496 -0.2010366
-0.06237309 0.0666663 0.045561485 0.07443773 0.01312632 -0.041372992 -0.09250839 0.16193128
00000000: 9863 edbd f0e6 433e 0ed4 44be 7901 58be
00000010: 3747 a7be 0954 b63d 9d18 353c 2518 85bd
00000020: 600d 1fbe 7f64 49be f25f cebc 27e1 bcbd
00000030: ac35 e8bd 20bd 00be b025 fcbd 59a2 d3bd
00000040: 078b 2b3e 4e44 c1bc fd73 e53a 9f68 acbe
00000050: ece0 213e b989 5f3d 6575 a23d 1d99 183d
00000060: 18bc 42bd 117f bebc e4f5 183e fc36 35be
00000070: b6f0 efbd 56af dfbe c4e5 88bd c512 a93d
00000080: 2f60 db3d edcd d3bd d8b4 6ebe 5b1e 093a
00000090: ccee 10bc 417b 4c3e 5a11 f03d bb4a ee3d
000000a0: ca64 ea3a 72e7 2fbe 807a 413e e5c1 a1be
000000b0: f722 57bd c128 d0bd 44dd 01bf 0985 9c3d
000000c0: f471 42bd d8db f83d 19f0 5e3e 7736 cf3e
000000d0: 3411 f43d 9c66 d4bc dd44 063e 32d1 213e
000000e0: 19dd a93c 2464 a9bd 4c74 efba 1f56 50bd
000000f0: 44c6 283c 055f d3bc 3edb e7bd 5ac9 873e
00000100: 75c2 ef3d 9786 fb3b 5f4d 4a3c a7ab 913c
00000110: beb7 523e 5d31 d13d 0f08 573e 0643 923e
00000120: af75 043e fa1d 313c 5372 d13d 9b39 333d
00000130: 2509 e43d e66b 743d b0a6 303e c908 26bf
00000140: c456 7e3e 9486 423e f053 a23a 9844 44be
00000150: 5d71 883d 0849 5bbd 0d81 b73d 6b2f 9dbd
00000160: 6b87 443d 5422 9fbd a0cd 9abb 1fab f13d
00000170: dc6a 533e e3e2 813e 0846 25be 0895 b3bd
00000180: 6fad ab3d 964d 843d cd01 3d3e 2d16 26be
00000190: 6fe0 343e 1a13 293e 3df4 2fbd 8556 6cbc
000001a0: 8b3b 3abe 7204 083e 55b1 65be c752 e03c
000001b0: ab55 b63d c186 75bc 8dfa 863a 1f4d 1f3e
000001c0: a39a c1be 4f74 0d3e e5a6 5b3e ad0b 25bf
000001d0: 2e5a c0bd dcf1 cd3c 416e 703e 2e6c 80be
000001e0: f3ff 84be d2c4 853c 9eb8 333d 47f1 f73d
000001f0: aeb7 61be 2b27 92bd dd63 17be e18d 81be
00000200: fd59 013e 12a9 cabd 117a cbbe 8747 213e
00000210: c72b a8bc 8570 d8bd a1ed ec3d 88b4 26be
00000220: ad3e acbd 4fa1 703c fc35 713e 89d7 e23c
00000230: 03c2 52be 02e5 da3d 9295 683e e46d b13d
00000240: 7198 15be 8e09 02bf 4d6e 0b3e d2c1 23bc
00000250: cebe 07be 228f 6bbe b67d 90bd 33d5 01be
00000260: 3521 293d 3efe 35bd 6b21 c83e d250 a0be
00000270: 0743 80be 17ef cabd 4a38 4c3e 631b 4ebe
00000280: 3822 f2bd f6d3 ffbe d203 dfbe 582f 85bc
00000290: c20f 09be a741 e3bc db7c 44be 5d00 f33d
000002a0: ced6 ee3c 1fa6 26bd 1acd bb3b 9d56 a3be
000002b0: 98b4 58be ee4b 243e b67c 47be a37e 453d
000002c0: 1939 55be 460f d7be 389a f33d 687d 8ebd
000002d0: d631 87bb f131 93bc 54e1 143c a3c4 eabc
000002e0: 6438 5f3b 8e42 813c 3aba 63bd 87ab 8fbc
000002f0: f8d9 16bd d8ee 8b3e 7652 443e 7e92 1d3e
00000300: 445f 92bd 88db 5fbe d0c1 a3be 7f5f 6ebe
00000310: 4aef 8e3d 5be4 ccbd a042 253d 18f1 323e
00000320: d805 07be 0655 193e d3de 563d f8ab 82be
00000330: 0d88 59bd 9574 0f3e 7348 c8bd 0e01 ec3d
00000340: d53c a03c d926 f33d dcd4 2ebe d5ee 763c
00000350: bf0a f33d beee 8d3b 265d b13d 06a7 df3d
00000360: 6fb5 c43c 5922 f1bd 9b19 33be 1e68 52bf
00000370: d6ef e7bc 255d 403c 2ebd c4bd e9b4 0f3d
00000380: 27f3 67bd 8cb5 f73d 9190 4a3d 8e1b 09bd
00000390: 8f0c 92bd 4fe3 a13d 7582 2bbe e50e 8e3e
000003a0: 5294 903d 44b5 ee3c eb6e e53d 31c7 3fbb
000003b0: affd 323e deec 4bbe 7a42 92bd 4708 ec3d
000003c0: 58e7 dd3d 263e 933d 106a f4bd c17e 61bd
000003d0: fc03 a03d 30fd fb3c 9a3c cc3d 8adc 4dbe
000003e0: ed7a 7fbd 5788 883d ae9e 3a3d cf72 983d
000003f0: c70f 573c ba76 29bd 0a75 bdbd 50d1 253e

fc1.bias f4 [64]
0.12545426 0.049670238 -0.15236017 -0.020136321 0.17460097 -0.064374715 -0.08009321 0.027195655
0.07118726 -0.16895744 0.13835602 0.18340997 0.29519683 0.1626236 -0.04578804 0.0078238435
0.059091553 0.046534356 0.007301689 -0.17543522 -0.124440596 0.051673982 0.031878635 -0.103865854
-0.106262155 0.1523557 -0.0498663 -0.19317614 0.07242477 0.14840333 -0.02557745 -0.19358395
0.1407724 0.046140637 -0.08677691 0.003700415 -0.027627327 0.0039573717 -0.0031671168 -0.104978785
-0.031629797 0.030899968 -0.10608965 0.1640576 -0.03599526 -0.10635917 0.08389708 -0.12429089
-0.09887345 -0.014246866 -0.093075074 0.10940385 0.023355523 -0.081232764 -0.1677949 0.031387333
0.09787059 -0.13115656 -0.07119081 -0.10285633 0.008241965 0.12163676 0.05845616 0.007238183
00000000: 1577 003e 0573 4b3d 4e04 1cbe edf4 a4bc
00000010: 99ca 323e e4d6 83bd e907 a4bd 6cc9 de3c
00000020: a0ca 913d 2e03 2dbe 33ad 0d3e d3cf 3b3e
00000030: 0a24 973e cd86 263e 3d8c 3bbd 942f 003c
00000040: fc09 723d cf9a 3e3d 0243 ef3b 4aa5 33be
00000050: b6da febd 19a8 533d 2c93 023d 9fb7 d4bd
00000060: f99f d9bd 2203 1c3e 9b40 4cbd f7cf 45be
00000070: 7053 943d 0bf7 173e cd87 d1bc df3a 46be
00000080: a426 103e f7fd 3c3d 18b8 b1bd a982 723b
00000090: b452 e2bc d7ac 813b 678f 4fbb 1eff d6bd
000000a0: 3f8e 01bd ee21 fd3c 8845 d9bd b7fe 273e
000000b0: c46f 13bd d6d2 d9bd 3bd2 ab3d 398c febd
000000c0: 2a7e cabd b06b 69bc 259e bebd 200f e03d
000000d0: 1554 bf3c 5d5d a6bd 6dd2 2bbe 0190 003d
000000e0: 6070 c83d e84d 06be 7dcc 91bd 57a6 d2bd
000000f0: 4f09 073c b21c f93d ba6f 6f3d 482e ed3b

fc2.weight f4 [64, 64]
0.09565905 0.050869044 -0.041420247 0.19186954 0.111208305 -0.2280557 0.03522241 -0.11579655
-0.018300483 0.13066007 -0.00033914816 -0.19001365 -0.08309068 0.06282774 -0.15850967 -0.14696471
-0.10121381 -0.5235983 -0.018129144 -0.04501141 -0.044381656 -0.17431921 0.63189733 -0.20455448
-0.18111672 -0.2518178 0.09238468 0.083570406 -0.022642419 -0.06167923 0.08938992 0.2269976
0.061323397 0.10852038 -0.05548891 0.06034399 -0.13124284 0.19523321 0.35482994 -0.05424292
-0.37279454 0.05801756 0.25431412 -0.11079095 -0.004511175 -0.098766424 -0.110024795 0.07913716
0.075629756 0.09481212 -0.0509863 -0.063147195 -0.06919686 0.4360737 -0.082686745 0.10771842
-0.12664057 -0.04242186 -0.25103876 0.0060906094 0.10306724 0.093857184 -0.22352374 -0.22164525
0.08867926 0.12700994 -0.050203882 0.06858793 -0.0059472197 0.09813548 -0.1387777 0.105656415
-0.16004452 -0.30140448 -0.11267145 0.3004333 -0.27544263 0.062461726 -0.078298315 0.058713425
0.1409926 -0.13886318 0.110869214 0.06339322 -0.010167352 -0.06876505 -0.07926356 -0.06496164
-0.055718012 -0.14234748 -0.47542194 -0.3244866 0.11293226 -0.070071876 0.1316217 -0.29347774
-0.07328521 -0.037938282 -0.03991635 -0.12134156 -0.004793415 0.10847332 -0.059752952 -0.10608305
-0.2676657 0.1367897 0.31748855 -0.13488248 0.033422388 -0.14870188 -0.098799944 -0.15886869
-0.20882182 -0.06542771 -0.08731918 0.13573867 -0.020333998 -0.16202036 -0.018173026 -0.18246944
-0.13685969 -0.07892073 0.32764855 -0.13149007 -0.21336374 -0.0038492603 -0.1515414 0.023566367
0.09569101 -0.025585726 0.1261355 -0.17231008 -0.33655855 -0.08246699 -0.04157747 -0.12876467
-0.18672366 -0.10287928 0.26673013 -0.24762845 0.058912944 0.026513536 -0.095714636 -0.11927509
-0.14330934 -0.19560668 -0.008412672 -0.20955884 -0.15448537 0.06009348 -0.16329655 -0.02712231
-0.068249464 0.33702448 0.2852296 0.00072812854 -0.29673976 -0.38871762 -0.1593116 0.07023125
0.019973604 -0.074847564 0.064506635 0.09468906 0.2266318 -0.21436188 0.3530312 -0.051760815
0.18579686 -0.04108612 -0.10064488 -0.23063083 -0.20329678 -0.14262706 -0.00010666477 0.011752705
-0.18474694 -0.4018886 -0.058390353 0.113396384 -0.4038405 -0.23016165 -0.11750707 -0.07231347
0.036583122 -0.07398324 0.07030599 0.0028457183 0.10706243 -0.21322809 0.014318156 -0.14277855
-0.15901871 -0.10946433 0.11291594 -0.11863543 -0.024934594 -0.20639181 -0.28702137 -0.13599366
-0.22935629 0.0058289324 -0.029270055 0.078448765 0.032098617 0.038431946 -0.03822186 0.090700835
-0.018636892 -0.28095743 0.21390404 -0.404801 0.12538372 -0.032699008 -0.0024131483 -0.05148017
-0.0033834125 -0.08327447 0.21588874 -0.10262531 0.06581264 -0.16500546 0.054397017 -0.24434061
-0.021386316 0.07302874 0.10829071 -0.030018445 -0.036246575 0.11429978 0.65337604 0.014843482
-0.0031565824 0.07464193 0.12896599 0.005229608 0.0711276 -0.020772919 0.036296036 0.04141946
0.02480709 0.028172197 -0.1341328 -0.035925582 0.11587666 -0.08211229 -0.100896634 -0.055615995
-0.10563858 -0.13469283 -0.08695803 -0.20974295 -0.16098315 0.10487458 0.018416986 0.19331719
00000000: e4e8 c33d 0f5c 503d 47a8 29bd 7379 443e
00000010: 2ec1 e33d 6f87 69be 6045 103d be26 edbd
00000020: e5ea 95bc c1cb 053e b2cf b1b9 f092 42be
00000030: 722b aabd d5ab 803d 5c50 22be eb7d 16be
00000040: 3049 cfbd 8a0a 06bf 9283 94bc e25d 38bd
00000050: 8ac9 35bd bc80 32be 06c4 213f bb76 51be
00000060: a976 39be 43ee 80be 2e34 bd3d f626 ab3d
00000070: 987c b9bc 5ca3 7cbd 1012 b73d 0f72 683e
00000080: 3e2e 7b3d ef3f de3d 5748 63bd 422b 773d
00000090: 8664 06be 37eb 473e 45ac b53e d32d 5ebd
000000a0: edde bebe d2a3 6d3d 7635 823e 5ee6 e2bd
000000b0: 7bd2 93bb 0d46 cabd ae54 e1bd aa12 a23d
000000c0: c6e3 9a3d db2c c23d 03d7 50bd 5153 81bd
000000d0: 15b7 8dbd 0d45 df3e ab57 a9bd 7a9b dc3d
000000e0: 11ae 01be 8bc2 2dbd 2788 80be bc93 c73b
000000f0: eb14 d33d 3238 c03d 68e3 64be f9f6 62be
00000100: 799d b53d e50e 023e 96a2 4dbd d477 8c3d
00000110: e5e0 c2bb 41fb c83d be1b 0ebe 6462 d83d
00000120: b6e2 23be b051 9abe 4ac0 e6bd 65d2 993e
00000130: d106 8dbe ded7 7f3d de5a a0bd 7d7d 703d
00000140: 5d60 103e 2632 0ebe 660f e33d 4ed4 813d
00000150: f794 26bc b1d4 8cbd ef54 a2bd 9c0a 85bd
00000160: 9238 64bd 8ac3 11be 816a f3be 1c23 a6be
00000170: 0749 e73d d881 8fbd d7c7 063e b742 96be
00000180: 8e16 96bd 2c65 1bbd 547f 23bd ec81 f8bd
00000190: 1412 9dbb 4327 de3d 83bf 74bd 1242 d9bd
000001a0: 7b0b 89be 9912 0c3e dc8d a23e a21e 0abe
000001b0: eae5 083d 4e45 18be a057 cabd 79ae 22be
000001c0: 63d5 55be f7fe 85bd 66d4 b2bd 14ff 0a3e
000001d0: 7c93 a6bc aae8 25be 99df 94bc 45d9 3abe
000001e0: f224 0cbe 31a1 a1bd 8dc1 a73e 55a5 06be
000001f0: 067c 5abe df43 7cbb ab2d 1bbe 410e c13c
00000200: a6f9 c33d 2899 d1bc aa29 013e 0e72 30be
00000210: 6751 acbe 74e4 a8bd 234d 2abd e3da 03be
00000220: 7d34 3fbe 5fb2 d2bd da90 883e 5092 7dbe
00000230: b34e 713d ea32 d93c 0906 c4bd 8046 f4bd
00000240: afbf 12be 1e4d 48be 4ed5 09bc 9896 56be
00000250: 6a31 1ebe 9524 763d 3637 27be 9b2f debc
00000260: 60c6 8bbd 798e ac3e 9d09 923e e1df 3e3a
00000270: 46ee 97be ff05 c7be 9422 23be 67d5 8f3d
00000280: af9f a33c ae49 99bd 0e1c 843d 56ec c13d
00000290: 2b12 683e ae81 5bbe 81c0 b43e 2603 54bd
000002a0: 8841 3e3e eb49 28bd e71e cebd 7d2a 6cbe
000002b0: 082d 50be d40c 12be 36b1 dfb8 6b8e 403c
000002c0: 4d2e 3dbe 58c4 cdbe b92a 6fbd 5d3c e83d
000002d0: 2fc4 cebe 7faf 6bbe 8ca7 f0bd 1619 94bd
000002e0: 2fd8 153d 8684 97bd 96fc 8f3d 3b7f 3a3b
000002f0: 8c43 db3d 7758 5abe b396 6a3c 8a34 12be
00000300: cdd5 22be d62e e0bd 7940 e73d 22f7 f2bd
00000310: a243 ccbc 6058 53be 77f4 92be ec41 0bbe
00000320: 60dc 6abe a100 bf3b c1c7 efbc bfa9 a03d
00000330: d779 033d d16a 1d3d 868e 1cbd 5cc1 b93d
00000340: 65ac 98bc a7d9 8fbe a909 5b3e 1442 cfbe
00000350: 9764 003e 65ef 05bd e925 1ebb dfdc 52bd
00000360: 3ebc 5dbb ce8b aabd f011 5d3e 382d d2bd
00000370: c7c8 863d 31f7 28be 68cf 5e3d 6d34 7abe
00000380: 5b32 afbc 1890 953d 85c7 dd3d 3ee9 f5bc
00000390: 4a77 14bd 0116 ea3d a743 273f 1332 733c
000003a0: aade 4ebb dedd 983d a90f 043e 225d ab3b
000003b0: 59ab 913d f82b aabc 27ab 143d 74a7 293d
000003c0: 3d38 cb3c 61c9 e63c 1c5a 09be b426 13bd
000003d0: be50 ed3d 7d2a a8bd e5a2 cebd 99cd 63bd
000003e0: 0a59 d8bd ebec 09be 0d17 b2bd dbc6 56be
000003f0: c4d8 24be 7cc8 d63d 38df 963c f1f4 453e

fc2.bias f4 [64]
0.0020147276 -0.08331285 0.0877477 0.05629754 0.17723928 -0.117122866 -0.061552107 0.07328961
0.22391267 0.3771156 -0.068477504 0.14854936 0.13049433 -0.06255468 -0.0805033 0.07575441
0.14459947 -0.026746146 -0.07227967 0.14625107 0.13495019 0.34326342 -0.18650724 -0.04101414
-0.089406826 -0.15752473 0.05813893 -0.07137251 -0.024183283 0.06402169 0.084938645 -0.07590658
-0.028995281 0.052850805 0.0056345924 -0.026014809 -0.061191924 -0.13186258 -0.0207982 -0.01691762
-0.14265834 0.4307747 0.3124226 -0.12879696 0.035942484 -0.14404257 0.24895485 -0.1496834
0.10007686 -0.12211284 -0.037981752 0.37775835 0.04070606 -0.13612153 0.15308328 -0.04150652
-0.11492967 -0.14583606 -0.016708726 -0.02658796 0.07201891 0.1505049 0.044211738 -0.03673065
00000000: 8509 043b ed9f aabd 11b5 b33d 4098 663d
00000010: 377e 353e 1dde efbd 101e 7cbd dd18 963d
00000020: 5d49 653e 4c15 c13e ef3d 8cbd 531d 183e
00000030: 4ea0 053e ab1c 80bd eade a4bd 2125 9b3d
00000040: e211 143e bc1a dbbc 5d07 94bd d7c2 153e
00000050: 6230 0a3e 39c0 af3e c1fb 3ebe 71fe 27bd
00000060: ed1a b7bd 2a4e 21be 1623 6e3d c02b 92bd
00000070: 051c c6bc ce1d 833d 50f4 ad3d e974 9bbd
00000080: 8387 edbc 167a 583d 63a2 b83b 021d d5bc
00000090: 62a4 7abd fc06 07be fd60 aabc d296 8abc
000000a0: 0715 12be 808e dc3e dbf5 9f3e 5ae3 03be
000000b0: 6d38 133d e57f 13be 05ee 7e3e 9b46 19be
000000c0: 19f5 cc3d 4c16 fabd c192 1bbd 8b69 c13e
000000d0: 66bb 263d 7163 0bbe ddc1 1c3e be02 2abd
000000e0: 3f60 ebbd 0c56 15be bde0 88bc fece d9bc
000000f0: a67e 933d f51d 1a3e 5e17 353d e172 16bd

fc3.weight f4 [4, 64]
0.3053244 0.036902644 0.35478687 0.05226447 0.17766763 0.059784923 0.2953831 -0.3068684
0.13285035 0.10813153 -0.09123888 -0.018309046 0.28718218 0.114670366 -0.19237176 0.05657137
0.14360392 -0.092953764 0.12142872 0.16628873 0.044284277 0.12136403 -0.108287215 -0.25811157
0.26840582 -0.15202846 -0.17717732 0.04797198 0.32875872 0.55227953 -0.4858011 0.08364265
0.14687999 0.50252885 0.012473895 0.4575072 0.3136242 -0.26361698 -0.029885963 0.20636356
-0.031576745 0.15624958 0.13302903 -0.16764595 0.29660347 -0.09177414 0.18148793 0.38940233
-0.01152264 0.17583647 0.34971502 0.1356648 0.23803514 -0.10426255 0.11472591 -0.043078825
-0.18235813 -0.16373469 -0.09361588 0.17651768 -0.041132625 0.17106844 0.16626 0.111266665
0.3041266 0.05449977 0.30295902 0.075276375 0.13408916 0.04989381 0.31267974 -0.009491461
0.07380429 0.12141911 -0.060124803 -0.10991895 0.16770937 0.2934396 -0.1309167 0.14995326
0.10521705 0.15258525 -0.2262211 0.14748396 0.13673218 0.19424415 -0.10881823 -0.10099827
0.32010972 -0.25936785 -0.13237675 -0.39723548 0.42408273 0.32147995 -0.069609456 0.15015912
0.21783093 0.25394005 0.0849572 0.21268651 0.27839816 -0.21444644 0.09656755 0.1234184
0.09196786 0.16387561 0.047012538 -0.18512873 0.41218695 -0.0897218 0.18596481 0.6795771
0.10107893 0.15381898 0.37186086 0.05803368 0.23501183 -0.07993332 0.1086331 0.011285029
-0.31312898 -0.1664784 0.2657095 0.18541646 -0.24205554 0.040792815 -0.07825188 0.13997436
0.3655005 0.34167832 0.12188957 0.25458094 0.13738525 0.22846045 0.35195574 -0.019074531
0.063435294 0.101489894 -0.2980541 0.3101946 0.15014201 -0.42125255 -0.17516191 0.14038812
0.016060611 -0.10080136 0.2102948 0.092192344 0.077420995 0.22071761 -0.14047897 0.01866049
0.63478065 -0.09945947 -0.12074326 -0.12798353 0.2661762 0.30543083 -0.25178587 -0.026558775
-0.20985065 0.109806575 0.213598 -0.003968924 0.17384712 -0.25721654 -0.27017078 0.14365101
-0.42870066 0.15821776 0.12805445 0.10159362 0.049666405 -0.10159661 0.17106205 0.7794751
0.122972034 0.16761446 0.19760868 0.1976778 0.056841422 0.15057154 0.1228556 0.09309415
-0.39916083 0.07779945 0.2599735 0.12104174 -0.60941935 0.055527363 -0.37126803 0.107192434
0.5079647 0.47366166 0.3010589 -0.06845282 0.065500975 -0.009317855 0.27201256 0.12353
0.10414607 0.1927346 -0.15876153 0.013639508 0.27601236 -0.19682416 -0.06882854 0.06131176
0.15209107 0.31588742 -0.43510857 0.13188745 0.06361711 0.22126572 -0.18698804 0.101645865
0.24989112 -0.2639865 -0.13895519 0.13107915 0.594663 0.22213289 -0.18909201 0.24158928
-0.05339174 0.3930719 0.045755733 0.29850152 0.020085061 -0.13915068 0.33826578 0.1681561
-0.3056525 0.16719379 0.13355187 -0.44483736 0.5083887 -0.24974166 0.116221845 -0.14088374
0.031517353 -0.07313242 0.32574865 0.11598375 0.15536405 -0.17952052 0.1041441 0.20657139
-0.55002546 -0.3474071 -0.28721914 0.038617026 -0.056240976 0.034553472 -0.030065786 0.18181877
00000000: 7b53 9c3e 3a27 173d a0a6 b53e 4513 563d
00000010: 81ee 353e 09e1 743d 743c 973e db1d 9dbe
00000020: ec09 083e 1074 dd3d 73db babd dafc 95bc
00000030: 8b09 933e 4cd8 ea3d 1afd 44be 62b7 673d
00000040: e80c 133e 8b5e bebd 9faf f83d 9847 2a3e
00000050: 6e63 353d b48d f83d b0c5 ddbd 3327 84be
00000060: 7d6c 893e 59ad 1bbe f96d 35be 447e 443d
00000070: 1053 a83e 3162 0d3f ecba f8be d64c ab3d
00000080: b567 163e bba5 003f 4f5f 4c3c 623e ea3e
00000090: 5a93 a03e cef8 86be 68d3 f4bc f850 533e
000000a0: 9e56 01bd e4ff 1f3e c338 083e 61ab 2bbe
000000b0: 69dc 973e 15f4 bbbd f9d7 393e be5f c73e
000000c0: 74c9 3cbc 7a0e 343e d90d b33e b7eb 0a3e
000000d0: 7cbf 733e 9b87 d5bd 6bf5 ea3d 6c73 30bd
000000e0: 17bc 3abe 11aa 27be afb9 bfbd 0dc1 343e
000000f0: af7a 28bd 912c 2f3e 1040 2a3e c7df e33d
00000100: 7bb6 9b3e 273b 5f3d 721d 9b3e 802a 9a3d
00000110: ab4e 093e 745d 4c3d 8f17 a03e 1382 1bbc
00000120: b426 973d 95aa f83d 6d45 76bd 301d e1bd
00000130: 01bc 2b3e b73d 963e 070f 06be 598d 193e
00000140: 097c d73d 4f3f 1c3e 81a6 67be 0906 173e
00000150: 8503 0c3e f0e7 463e 18dc debd 2ed8 cebd
00000160: 6ce5 a33e ddcb 84be c58d 07be 7362 cbbe
00000170: 5f21 d93e 0599 a43e 678f 8ebd 50c3 193e
00000180: 120f 5f3e 6e04 823e 0afe ad3d 7eca 593e
00000190: 348a 8e3e d997 5bbe 35c5 c53d c9c2 fc3d
000001a0: a559 bc3d 02cf 273e 3890 403d 6392 3dbe
000001b0: 2b0a d33e 10c0 b7bd 8f6d 3e3e c4f8 2d3f
000001c0: 7802 cf3d b982 1d3e 8c64 be3e b9b4 6d3d
000001d0: f1a6 703e 15b4 a3bd 087b de3d d8e4 383c
000001e0: 7152 a0be 5079 2abe 130b 883e d0dd 3d3e
000001f0: 68dd 77be 5e16 273d 8642 a0bd 7055 0f3e
00000200: e222 bb3e 76f0 ae3e 3da1 f93d 6f58 823e
00000210: b8ae 0c3e 89f1 693e 8b33 b43e 3142 9cbc
00000220: 5dea 813d efd9 cf3d 8c9a 98be d4d1 9e3e
00000230: d4be 193e 6aae d7be a55d 33be e7c1 0f3e
00000240: 8b91 833c f270 cebd 8557 573e 57cf bc3d
00000250: e68e 9e3d cc03 623e b8d9 0fbe e2dd 983c
00000260: fc80 223f 68b1 cbbd 3e48 f7bd 1d0e 03be
00000270: 3f48 883e 6e61 9c3e 14ea 80be ca91 d9bc
00000280: 17e3 56be 45e2 e03d 6fb9 5a3e bf0d 82bb
00000290: fb04 323e e3b1 83be d353 8abe 4019 133e
000002a0: a77e dbbe d603 223e b520 033e 5110 d03d
000002b0: 006f 4b3d e211 d0bd e42a 2f3e ae8b 473f
000002c0: c3d8 fb3d 20a3 2b3e ee59 4a3e 0d6c 4a3e
000002d0: 8dd2 683d 6d2f 1a3e b89b fb3d 25a8 be3d
000002e0: cf5e ccbe 5155 9f3d 3f1b 853e bbe4 f73d
000002f0: e802 1cbf a970 633d d816 bebe b587 db3d
00000300: f909 023f c883 f23e 6424 9a3e fe30 8cbd
00000310: 6025 863d eba9 18bc 3b45 8b3e 4cfd fc3d
00000320: 894a d53d 385c 453e 6292 22be 3e78 5f3c
00000330: 7e51 8d3e 468c 49be faf5 8cbd 0a22 7b3d
00000340: c3bd 1b3e ffbb a13e 8dc6 debe 810d 073e
00000350: b049 823d 7b93 623e cb79 3fbe b52b d03d
00000360: 75e3 7f3e 3d29 87be 454a 0ebe 9d39 063e
00000370: d63b 183f ce76 633e 56a1 41be 2e63 773e
00000380: 4cb1 5abd b840 c93e 5d6a 3b3d 31d5 983e
00000390: 6d89 a43c 847d 0ebe 2c31 ad3e 1d31 2c3e
000003a0: 7c7e 9cbe d934 2b3e d2c1 083e b9c1 e3be
000003b0: c325 023f 47bc 7fbe b805 ee3d d443 10be
000003c0: 5718 013d 73c6 95bd 87c8 a63e e388 ed3d
000003d0: c117 1f3e 3ad4 37be 8049 d53d 7387 533e
000003e0: 78ce 0cbf 58df b1be 630e 93be e32c 1e3d
000003f0: f05c 66bd f187 0d3d 864c f6bc b32e 3a3e

fc3.bias f4 [4]
0.25091833 0.24992035 0.14732546 0.16188379
00000000: 5e78 803e 1feb 7f3e 7cdc 163e ddc4 253e
